…
Best val_loss So Far: 0.0027119764126837254
Total elapsed time: 08h 29m 34s
Model: "model"
__________________________________________________________________________________________________
 Layer (type)                Output Shape                 Param #   Connected to                  
==================================================================================================
 input_1 (InputLayer)        [(None, 12)]                 0         []                            
                                                                                                  
 dense (Dense)               (None, 64)                   832       ['input_1[0][0]']             
                                                                                                  
 re_lu (ReLU)                (None, 64)                   0         ['dense[0][0]']               
                                                                                                  
 input_2 (InputLayer)        [(None, 12)]                 0         []                            
                                                                                                  
 dense_2 (Dense)             (None, 512)                  33280     ['re_lu[0][0]']               
                                                                                                  
 dense_1 (Dense)             (None, 16)                   208       ['input_2[0][0]']             
                                                                                                  
 re_lu_2 (ReLU)              (None, 512)                  0         ['dense_2[0][0]']             
                                                                                                  
 re_lu_1 (ReLU)              (None, 16)                   0         ['dense_1[0][0]']             
                                                                                                  
 dropout (Dropout)           (None, 512)                  0         ['re_lu_2[0][0]']             
                                                                                                  
 dense_3 (Dense)             (None, 512)                  8704      ['re_lu_1[0][0]']             
                                                                                                  
 dense_4 (Dense)             (None, 32)                   16416     ['dropout[0][0]']             
                                                                                                  
 re_lu_3 (ReLU)              (None, 512)                  0         ['dense_3[0][0]']             
                                                                                                  
 re_lu_4 (ReLU)              (None, 32)                   0         ['dense_4[0][0]']             
                                                                                                  
 dense_5 (Dense)             (None, 512)                  262656    ['re_lu_3[0][0]']             
                                                                                                  
 dropout_1 (Dropout)         (None, 32)                   0         ['re_lu_4[0][0]']             
                                                                                                  
 re_lu_5 (ReLU)              (None, 512)                  0         ['dense_5[0][0]']             
                                                                                                  
 concatenate (Concatenate)   (None, 544)                  0         ['dropout_1[0][0]',           
                                                                     're_lu_5[0][0]']             
                                                                                                  
 dense_6 (Dense)             (None, 16)                   8720      ['concatenate[0][0]']         
                                                                                                  
 re_lu_6 (ReLU)              (None, 16)                   0         ['dense_6[0][0]']             
                                                                                                  
 regression_head_1 (Dense)   (None, 2)                    34        ['re_lu_6[0][0]']             
                                                                                                  
==================================================================================================
Total params: 330850 (1.26 MB)
Trainable params: 330850 (1.26 MB)
Non-trainable params: 0 (0.00 Byte)
__________________________________________________________________________________________________
…
Best val_loss So Far: 0.00028349325293675065
Total elapsed time: 05h 56m 34s
Model: "model"
__________________________________________________________________________________________________
 Layer (type)                Output Shape                 Param #   Connected to                  
==================================================================================================
 input_2 (InputLayer)        [(None, 12)]                 0         []                            
                                                                                                  
 dense_1 (Dense)             (None, 16)                   208       ['input_2[0][0]']             
                                                                                                  
 re_lu_1 (ReLU)              (None, 16)                   0         ['dense_1[0][0]']             
                                                                                                  
 input_1 (InputLayer)        [(None, 12)]                 0         []                            
                                                                                                  
 dropout (Dropout)           (None, 16)                   0         ['re_lu_1[0][0]']             
                                                                                                  
 dense (Dense)               (None, 64)                   832       ['input_1[0][0]']             
                                                                                                  
 dense_3 (Dense)             (None, 512)                  8704      ['dropout[0][0]']             
                                                                                                  
 re_lu (ReLU)                (None, 64)                   0         ['dense[0][0]']               
                                                                                                  
 re_lu_3 (ReLU)              (None, 512)                  0         ['dense_3[0][0]']             
                                                                                                  
 dense_2 (Dense)             (None, 512)                  33280     ['re_lu[0][0]']               
                                                                                                  
 dropout_1 (Dropout)         (None, 512)                  0         ['re_lu_3[0][0]']             
                                                                                                  
 re_lu_2 (ReLU)              (None, 512)                  0         ['dense_2[0][0]']             
                                                                                                  
 dense_5 (Dense)             (None, 512)                  262656    ['dropout_1[0][0]']           
                                                                                                  
 dense_4 (Dense)             (None, 32)                   16416     ['re_lu_2[0][0]']             
                                                                                                  
 re_lu_5 (ReLU)              (None, 512)                  0         ['dense_5[0][0]']             
                                                                                                  
 re_lu_4 (ReLU)              (None, 32)                   0         ['dense_4[0][0]']             
                                                                                                  
 dropout_2 (Dropout)         (None, 512)                  0         ['re_lu_5[0][0]']             
                                                                                                  
 concatenate (Concatenate)   (None, 544)                  0         ['re_lu_4[0][0]',             
                                                                     'dropout_2[0][0]']           
                                                                                                  
 dense_6 (Dense)             (None, 16)                   8720      ['concatenate[0][0]']         
                                                                                                  
 re_lu_6 (ReLU)              (None, 16)                   0         ['dense_6[0][0]']             
                                                                                                  
 regression_head_1 (Dense)   (None, 2)                    34        ['re_lu_6[0][0]']             
                                                                                                  
==================================================================================================
Total params: 330850 (1.26 MB)
Trainable params: 330850 (1.26 MB)
Non-trainable params: 0 (0.00 Byte)
__________________________________________________________________________________________________
…
