…
'dropout_dimension1_7': 0.4, 'units_dimension1_8': 128, 'dropout_dimension1_8': 0.30000000000000004, 'units_dimension1_9': 64, 'dropout_dimension1_9': 0.0, 'units_dimension2_9': 8, 'dropout_dimension2_9': 0.30000000000000004}
Model: "model"
_________________________________________________________________
 Layer (type)                Output Shape              Param #   
=================================================================
 input_rssi (InputLayer)     [(None, 12)]              0         
                                                                 
 input_dropout (Dropout)     (None, 12)                0         
                                                                 
 dense_1.1 (Dense)           (None, 512)               6656      
                                                                 
 dropout (Dropout)           (None, 512)               0         
                                                                 
 dense_1.2 (Dense)           (None, 512)               262656    
                                                                 
 dropout_1 (Dropout)         (None, 512)               0         
                                                                 
 dense_1.3 (Dense)           (None, 512)               262656    
                                                                 
 dropout_2 (Dropout)         (None, 512)               0         
                                                                 
 dense_1.4 (Dense)           (None, 64)                32832     
                                                                 
 dropout_3 (Dropout)         (None, 64)                0         
                                                                 
 dense_1.5 (Dense)           (None, 256)               16640     
                                                                 
 dropout_4 (Dropout)         (None, 256)               0         
                                                                 
 dense_1.6 (Dense)           (None, 2048)              526336    
                                                                 
 dropout_5 (Dropout)         (None, 2048)              0         
                                                                 
 dense_1.7 (Dense)           (None, 128)               262272    
                                                                 
 dropout_6 (Dropout)         (None, 128)               0         
                                                                 
 dense_1.8 (Dense)           (None, 256)               33024     
                                                                 
 dropout_7 (Dropout)         (None, 256)               0         
                                                                 
 output_d1 (Dense)           (None, 9)                 2313      
                                                                 
 dense_2.1 (Dense)           (None, 32)                320       
                                                                 
 dropout_8 (Dropout)         (None, 32)                0         
                                                                 
 dense_2.2 (Dense)           (None, 128)               4224      
                                                                 
 dropout_9 (Dropout)         (None, 128)               0         
                                                                 
 dense_2.3 (Dense)           (None, 128)               16512     
                                                                 
 dropout_10 (Dropout)        (None, 128)               0         
                                                                 
 dense_2.4 (Dense)           (None, 64)                8256      
                                                                 
 dropout_11 (Dropout)        (None, 64)                0         
                                                                 
 output_d2 (Dense)           (None, 81)                5265      
                                                                 
=================================================================
Total params: 1439962 (5.49 MB)
Trainable params: 1439962 (5.49 MB)
Non-trainable params: 0 (0.00 Byte)
_________________________________________________________________
